MLModel/app_model.tflite (tflite, 18620 bytes, 5 tensors)

dense/MatMul_bias f4 [64]
00000000: ea44 bcbb 0000 0000 6be3 e2bb 0000 0000
00000010: 0000 0000 85b9 10bc acdd e3bb 12f3 003c
00000020: 0000 0000 e9e3 febb 907c ea3b 0000 0000
00000030: ff72 0f3c d153 dcbb 0000 0000 8387 44ba
00000040: 870e f6bb 6af2 063c 0000 0000 0000 0000
00000050: 5bfa 083c 0000 0000 0000 0000 5669 083c
00000060: 0000 0000 78b0 233c b04c 0fbb 4632 053c
00000070: e923 f63b e459 e1bb 0000 0000 0000 0000
00000080: 0000 0000 0000 0000 0000 0000 2169 0d3b
00000090: 0000 0000 12dc b43b 0000 0000 36c8 b3bb
000000a0: 0000 0000 0000 0000 91f5 51bb f666 dfbb
000000b0: 0000 0000 f6b4 03bc 0000 0000 0000 0000
000000c0: 54d4 d93b 7455 99bb 8d48 d6bb 0000 0000
000000d0: c278 143c 2c4d 45bb 5137 063c 0000 0000
000000e0: 0000 0000 0000 0000 6d42 d33b 0bbe 9d3b
000000f0: d006 dabb 0000 0000 d692 b83b 0000 0000
-0.00574552 0.0 -0.006924083 0.0 0.0 -0.008833294 -0.0069539156 0.0078704525
0.0 -0.007778634 0.0071559623 0.0 0.008755445 -0.006723859 0.0 -0.00074969995
-0.007509056 0.008236507 0.0 0.0 0.008360471 0.0 0.0 0.008325895
0.0 0.009990804 -0.0021865778 0.008129662 0.007511605 -0.006877171 0.0 0.0
0.0 0.0 0.0 0.0021577554 0.0 0.0055193985 0.0 -0.0054865135
0.0 0.0 -0.0032037238 -0.006817694 0.0 -0.00803875 0.0 0.0
0.006647626 -0.0046793763 -0.0065394104 0.0 0.009061994 -0.0030105812 0.008191899 0.0
0.0 0.0 0.0064471276 0.0048139147 -0.006653644 0.0 0.0056327386 0.0

dense/kernel/transpose f4 [64, 1]
00000000: ceff 043c f1ff 4abe 2db6 eb3c ba11 45be
00000010: 24ee 85be 644c 933e 811e 793e 540d 473e
00000020: 0da0 1abe 2caa 153d 9d64 ba3d 201f 5abe
00000030: 3545 1b3e 6caa 893e b6bf 6bbe 9a8f 653c
00000040: 9508 c13d 5f37 b93d de0b dcbd d8ac 4abe
00000050: 4aa8 983e 442c 31be 7055 27bd a634 ba3d
00000060: f2ee b7bd 261b 893d ab94 023e b396 a03e
00000070: 4c97 ec3d 5b01 3c3e 20fa 45bd 99f4 95be
00000080: b136 14be c031 f5bc 5c40 2abe dfd4 5b3d
00000090: 1a31 cbbd a245 9f3d bc6e 3cbe 5753 883b
000000a0: d0bc 43bd 2e3a d0bd f872 923e 769f 753d
000000b0: 9433 7cbd f5fb 523e a1f6 84be c0f4 b4bc
000000c0: ee1e 0a3e b635 993e 7843 d93d d2aa d5bd
000000d0: 049a 523e e51a 833e 08b4 8a3e 132c 38be
000000e0: 4e4b 99be 86cd 86be d816 eb3b d8ed 913e
000000f0: d450 223e 7626 3ebe bf6f fe3d 939b 00be
0.008117629 -0.19824196 0.028773392 -0.19245043 -0.2615825 0.2876922 0.24328043 0.19438678
-0.15100117 0.03653924 0.09101222 -0.21300936 0.15163119 0.26887834 -0.2302235 0.014011288
0.09425465 0.09043764 -0.10744451 -0.19792497 0.29815894 -0.17302042 -0.040852964 0.09092073
-0.08981122 0.06694631 0.12752025 0.31364974 0.11552295 0.18359892 -0.04833424 -0.29288176
-0.14473988 -0.02993095 -0.16626114 0.053669807 -0.09921475 0.07776953 -0.18401617 0.0041603255
-0.047787488 -0.10167347 0.2860334 0.059966527 -0.061572626 0.20603926 -0.25969413 -0.022089362
0.13488361 0.2992379 0.10608572 -0.10432972 0.20566565 0.25606456 0.27090478 -0.17985563
-0.29940265 -0.26328677 0.007174354 0.28501773 0.15851146 -0.18569359 0.124236576 -0.12559347

dense_1/MatMul_bias f4 [64]
00000000: 0000 0000 0000 0000 0000 0000 0000 0000
00000010: 0000 0000 353e 4fbb 4dfd f8bb 5ffc ebbb
00000020: c841 c7bb b026 0dbc 0000 0000 663d 4fbb
00000030: 0000 0000 1347 00bc 88b5 fcbb 0000 0000
00000040: 4916 ffbb 0000 0000 0000 0000 0000 0000
00000050: f265 a0bb 0000 0000 0000 0000 c245 023c
00000060: 5e24 ffbb 1e5b f4bb 0000 0000 8da1 023c
00000070: d2f5 013c 0000 0000 e351 023c f0bf 033c
00000080: 0000 0000 0000 0000 7721 fcbb 333e 4fbb
00000090: 5e4a efbb 394d eabb 0000 0000 bf45 09bc
000000a0: 0000 0000 0000 0000 0000 0000 f744 033c
000000b0: 0000 0000 0000 0000 a570 023c d5b3 063c
000000c0: 0000 0000 0000 0000 4443 183c 293e 4fbb
000000d0: 0000 0000 0000 0000 0000 0000 3f05 023c
000000e0: 0000 0000 15fa fabb 0000 0000 0000 0000
000000f0: d683 ffbb 544a 023c fe57 e6bb a926 033c
0.0 0.0 0.0 0.0 0.0 -0.0031622772 -0.007598555 -0.007201716
-0.00608084 -0.008615181 0.0 -0.003162229 0.0 -0.007829445 -0.00771207 0.0
-0.007784639 0.0 0.0 0.0 -0.0048949653 0.0 0.0 0.007951202
-0.0077863177 -0.007457151 0.0 0.007973087 0.007932143 0.0 0.007954094 0.008041367
0.0 0.0 -0.007694419 -0.0031622767 -0.0073025664 -0.007150319 0.0 -0.008378445
0.0 0.0 0.0 0.008012048 0.0 0.0 0.007961427 0.008221586
0.0 0.0 0.009293381 -0.0031622744 0.0 0.0 0.0 0.007935821
0.0 -0.0076592066 0.0 0.0 -0.0077976985 0.0079522915 -0.0070295325 0.008004823

dense_1/kernel/transpose f4 [64, 64]
00000000: 0757 183e 0439 4ebd ae53 40be 274b 373e
00000010: d05b 1dbc 8ae0 ff3d 0c76 3e3d 6881 bebd
00000020: c449 c8bd 6674 903d 2d36 033e acd9 24be
00000030: 76a9 29be 46ec a5bd 7f15 37be 7373 ebbd
00000040: 721e e03d 4371 26be 787c 9cbd f732 243e
00000050: bb75 2a3e 6236 ac3d 1d5c 273e 2d08 eabd
00000060: 1896 aabc d8de 58be f81a 11be e8d0 e03c
00000070: e007 0ebe dc9b 4dbe b7ed 363e 59bc 5c3e
00000080: 5df1 f3bd ce0e 1cbe 5b09 00be 7fca 2f3e
00000090: b834 05bd 701b 01be d451 38bd 8328 28be
000000a0: d2e2 21be 6665 e13d 20bd 0bbc 6ca5 363d
000000b0: fac4 32be c279 f1bd d947 123e 406c 78bd
000000c0: 449e 103d d683 3abe 4516 2b3e 0042 febb
000000d0: 0a26 ef3d a8c8 a8bd 1025 a33c 59ea c6bd
000000e0: 00b1 053d 74a6 673d cc57 2d3d a02b f23c
000000f0: 4674 4cbe 9028 3fbe 2602 ed3d 49e1 4c3e
00000100: 64dc 243d 6a91 9c3d eaef a3bd 331c 5a3e
00000110: 6091 0fbe 7a40 943d 9060 72bc e450 31bd
00000120: e95e e4bd 7178 063e b56a 18be 622d f13d
00000130: 44a6 6fbd cfc3 e0bd 008a 893b 4c60 133d
00000140: d0d0 95bc 398d c9bd fd78 293e ed3f 50be
00000150: 5f08 c9bd 6c42 92bd 5f8a 423e f6b2 34be
00000160: 04a5 0c3d 4a39 db3d d68b a3bd fde8 4dbe
00000170: 1ae4 b23d 904f fd3c 25b9 2c3e 042f 603d
00000180: 9e25 fe3d 30b8 20bc 0342 48be b0dd 4fbd
00000190: 7c67 2f3d a4bc f3bd e781 423e 20af e6bb
000001a0: ce58 bfbd 00c0 3bbc e4a1 64bd b876 03bd
000001b0: 9bb8 5bbe cd8a 503e 1c71 713d 323a 59be
000001c0: b6a8 89bd 90c5 1cbe da82 c73d 544e 223d
000001d0: 46ad b8bd 907a 92bc 3b12 efbd 3dff 1fbe
000001e0: 61a2 253e 5258 e63d 329d 9b3d f030 2ebc
000001f0: a05d 433c b6c1 c73d f245 af3d bbcf cebd
00000200: 4338 d1bd e4b4 a9bd 0bf9 0f3e 28a0 41bd
00000210: 80c3 5bbe 36f6 21be 31aa e5bd 54bb 54be
00000220: 5cd8 76bd fe4e a73d 8c88 aebd d4ba 03be
00000230: 10ad 23bd 61ca 5c3e e87f 9a3c 85bc c4bd
00000240: 5891 45be 94eb 08be f053 04be 7080 aa3c
00000250: 9a20 8e3d 148b 00bd b133 e4bd c804 b93c
00000260: 8848 023d 975d 39be 103a cc3c fd7e 44be
00000270: 4da5 0b3e 8190 523e 637b 483e 00fa e0ba
00000280: 8085 27bb 808a 19be a4b7 463d d990 1c3e
00000290: f6fa fb3d 6caa 6ebd e0c4 eb3c 008f 8b3a
000002a0: 671c 163e 72ec ce3d 9805 b13c cb2f 523e
000002b0: 4c7c 5fbd cb48 183e 6e95 cf3d c557 483e
000002c0: 3581 533e a4d7 5c3d 528f 34be 26b4 a1bd
000002d0: ab02 c8bd 1838 cb3c eacf e9bd 9462 283d
000002e0: f5f2 353e a449 773d ea8e 97bd a08f c8bc
000002f0: c2c1 f63d a3af 563e f9c9 38be 213d 39be
00000300: f6e8 af3d 5d54 1a3e 0062 8f39 313a 1abe
00000310: cff9 45be ab53 d5bd bc5c 8abd e820 b0bd
00000320: 3cce 0cbe 075b 4abe fb80 3c3e 8f79 f2bd
00000330: 24d4 113d a8ba 1ebe e3b1 4a3e 1ad6 f03d
00000340: 1895 49bd 6081 003d cba5 e7bd d86e 4abd
00000350: 540d 3fbd c0da a9bb c0fb fc3c 2528 32be
00000360: 3a8c a13d 03ad 4a3e 964f d83d 85a3 0abe
00000370: cef8 30be 4c49 f0bd ef48 09be a807 bdbc
00000380: ebad 063e 20de f73b dc54 3e3d c224 d3bd
00000390: 3e1e fd3d a85f b73c a412 393d 406e b1bd
000003a0: c068 b7bc 73b8 1b3e cca5 083d 71ee c5bd
000003b0: 0606 52be 1aa2 12be 33ba 313e 00c5 afba
000003c0: 28a2 80bd c87a 98bc 99e0 2bbe b224 f53d
000003d0: ba1f c9bd 0869 4ebd 4943 503e 302e 8ebc
000003e0: 202d a7bc 2ac8 9c3d 88b2 01be d0b1 e43c
000003f0: 207e 02bd 9e0a 3fbe e9d0 2d3e ccad 0d3d
0.14876948 -0.050347343 -0.18781921 0.17899762 -0.009604409 0.12493999 0.046499297 -0.09302026
-0.09779695 0.07053451 0.12813635 -0.1609866 -0.1656855 -0.08101706 -0.17879294 -0.114966296
0.10943307 -0.16254143 -0.07640928 0.16035067 0.16646473 0.0840881 0.16343732 -0.11427341
-0.020823523 -0.21178758 -0.14170444 0.027443364 -0.13870192 -0.20078987 0.17864119 0.21556224
-0.11911271 -0.15240023 -0.12503569 0.1716709 -0.03252098 -0.12608123 -0.044999912 -0.16421704
-0.15809181 0.11005668 -0.008528978 0.044591352 -0.17457953 -0.117908016 0.1428522 -0.06065011
0.035307184 -0.18214354 0.16707714 -0.0077593327 0.11677177 -0.08241397 0.019915134 -0.09712667
0.032639503 0.056555226 0.042320058 0.029561818 -0.1996623 -0.18667817 0.115726754 0.20007814
0.040249243 0.07644923 -0.08004744 0.2129982 -0.140203 0.072388604 -0.01479353 -0.043290034
-0.11150915 0.13131882 -0.14884456 0.11776234 -0.058508173 -0.109748475 0.004197359 0.035980508
-0.018288046 -0.09841389 0.1655006 -0.20336886 -0.0981605 -0.07141575 0.18998097 -0.17646393
0.03433706 0.107042864 -0.07985656 -0.20108409 0.08734913 0.030921727 0.16867502 0.054732338
0.12409519 -0.009809539 -0.19556431 -0.050748527 0.0428233 -0.11901215 0.18994866 -0.0070399195
-0.0934311 -0.011459351 -0.055818453 -0.03209564 -0.2145714 0.20365448 0.05894576 -0.21213606
-0.06721632 -0.15309739 0.09741755 0.03962548 -0.09017424 -0.017880708 -0.11673399 -0.1562471
0.16175224 0.112473145 0.07598342 -0.010631785 0.011924177 0.09753744 0.08558263 -0.10098215
-0.10215809 -0.08286455 0.14059846 -0.047271878 -0.21461296 -0.15816578 -0.11214102 -0.20774585
-0.06026493 0.081693634 -0.08522138 -0.12864238 -0.039959967 0.21561576 0.018859819 -0.0960627
-0.19293725 -0.13371116 -0.12922645 0.020813197 0.06939812 -0.031382635 -0.11142672 0.022585288
0.031807452 -0.18102108 0.02493003 -0.19189067 0.13637276 0.20562936 0.19578318 -0.001716435
-0.002556175 -0.1499424 0.048514977 0.1528963 0.123037264 -0.058267996 0.0287804 0.0010647476
0.14659272 0.10103692 0.021609113 0.20526044 -0.054561898 0.14871518 0.10135923 0.19564731
0.20654757 0.05391659 -0.17632797 -0.07895689 -0.09766134 0.024807021 -0.114166096 0.041109636
0.17768462 0.060372964 -0.074003056 -0.024482548 0.12048675 0.20965438 -0.18045796 -0.18089725
0.08589356 0.15071245 0.000273481 -0.15061261 -0.19333576 -0.10416349 -0.06755969 -0.08600026
-0.13750547 -0.19761287 0.18408577 -0.11839592 0.035602704 -0.15500891 0.19794421 0.11759587
-0.049214453 0.03137338 -0.113109194 -0.049422115 -0.04664357 -0.0051835477 0.030881763 -0.17398126
0.07888074 0.19792561 0.10562055 -0.1353894 -0.17282411 -0.1173273 -0.13406728 -0.02307494
0.13152282 0.007564321 0.046467647 -0.10309745 0.12359284 0.02238448 0.045183793 -0.08663607
-0.022388816 0.1520708 0.03336124 -0.0966462 -0.2051011 -0.1431965 0.17356186 -0.0013410151
-0.06280929 -0.018613234 -0.16784896 0.1196989 -0.098205045 -0.050393134 0.20338167 -0.017356008
-0.02040726 0.07655366 -0.1266576 0.027916819 -0.031858563 -0.18656394 0.16974224 0.034589574

dense_2/kernel/transpose f4 [1, 64]
00000000: 1a39 8d3e b354 1cbe 50ef 95bc 3ea2 383e
00000010: 00f0 27bb 8c17 6fbe 3762 61be 85fa 70bc
00000020: f6c7 5aba 676d d2bc e036 543e 7c0b 61be
00000030: 8000 573d 4078 83be 23aa 9ebd 235f 4ebe
00000040: 5573 0abe 92e4 f9bd 104b 6d3e c8b0 50bd
00000050: f0cb b7bd 9065 893e 349a 793e 7d97 873e
00000060: e697 14be 1742 dfbc aac1 91be 6505 383e
00000070: 4913 9d3e c879 69be 0327 663e 42ef ea3d
00000080: 0229 2dbe 4057 5f3d fe18 8dbd f203 83be
00000090: 6d6d 95bc af93 57bc cac3 0ebe 7442 71be
000000a0: 84ad c1bd 606c 923e 4836 683e 8f86 003e
000000b0: 2242 893e 0e23 033e 5dcd 4c3e 3199 743d
000000c0: 08f7 7b3d 0ca8 783e a7de 943c 8675 aabd
000000d0: 3fad 9abe a6af e4bd 485a 9cbd 38bd a03e
000000e0: 8679 95bd 33e0 6cbd e849 723e dcc1 bb3d
000000f0: 45e0 28be 54d1 783e 5098 9cbd 22fd 083e
0.27582628 -0.15266685 -0.01830259 0.1803064 -0.002562523 -0.23348826 -0.22010122 -0.014708166
-0.00083458365 -0.025686933 0.20724058 -0.21977037 0.05249071 -0.2567768 -0.07747295 -0.2015348
-0.13520558 -0.122017995 0.23173165 -0.05094984 -0.08974445 0.268353 0.2437523 0.26482764
-0.1451107 -0.027253194 -0.28468066 0.17970808 0.30678776 -0.22800362 0.2247582 0.11471416
-0.16910174 0.054526567 -0.068895325 -0.25588948 -0.018240655 -0.013157769 -0.13941875 -0.23560506
-0.094569236 0.2859831 0.22676957 0.1255133 0.26808268 0.12806341 0.20000215 0.059716407
0.061514884 0.24282855 0.018172575 -0.08323197 -0.302103 -0.11166315 -0.07634407 0.31394362
-0.072985694 -0.057831 0.23661005 0.09167835 -0.16491802 0.24298602 -0.07646239 0.13377813
