MLModel/converted_model_3.tflite (tflite, 20668 bytes, 5 tensors)

dense/MatMul_bias f4 [64]
0	0x3e4caa2b	0.19986789
1	0x3df90957	0.121599846
2	0x3e09690c	0.13418978
3	0x3d978f2b	0.07400354
4	0x3e4b028b	0.19825189
5	0x3e324eaa	0.1741282
6	0x3e02123f	0.12702273
7	0x3e6013dd	0.21882577
8	0x3e33f803	0.17575078
9	0x3e1252fd	0.1428947
10	0x3e247795	0.16061242
11	0x3de0f382	0.109839454
12	0x3e463d05	0.19359215
13	0x3dd5ed72	0.1044568
14	0x3e56a784	0.2096234
15	0x3dd9551a	0.10611935
16	0x3e753c17	0.23948704
17	0x3e20499b	0.15653078
18	0x3e4b5ad9	0.19858874
19	0x3dcfa209	0.10138328
20	0x3e491319	0.19636191
21	0x3e64fcaf	0.22362016
22	0x3d7b62db	0.061373573
23	0x3e1c0989	0.15238012
24	0x3e5f2ac0	0.21793652
25	0x3e374f36	0.1790131
26	0x3d864b8d	0.06557379
27	0x3dd9dc69	0.10637743
28	0x3e140a6e	0.14457104
29	0x3e57bad5	0.21067365
30	0x3e321de0	0.17394209
31	0x3e3ed5d3	0.18636255
32	0x3de0c435	0.109749235
33	0x3e5624bc	0.2091245
34	0x3debfe81	0.11523152
35	0x3e08799a	0.13327637
36	0x3e58e055	0.21179326
37	0x3e497f54	0.19677478
38	0x3e2960e8	0.16540873
39	0x3df87d5e	0.12133287
40	0x3e162c83	0.14665417
41	0x3d178bd4	0.036998585
42	0x3e39be96	0.18139109
43	0x3e8f589a	0.27997285
44	0x3e2efeb6	0.17089352
45	0x3e6b02a8	0.22950232
46	0x3e34176f	0.17587064
47	0x3dd44959	0.103655525
48	0x3d81bf1b	0.063352786
49	0x3e635df9	0.22203816
50	0x3e4e03e3	0.2011867
51	0x3e2607ed	0.16213961
52	0x3d4d570d	0.050131846
53	0x3e16fb0a	0.14744201
54	0x3df41be1	0.1191938
55	0x3dadaf12	0.08480658
56	0x3e00d0d6	0.12579665
57	0x3e3fa7c6	0.18716344
58	0x3e5caf03	0.21551137
59	0x3dc30fb6	0.09524481
60	0x3d894261	0.06702114
61	0x3e25c83c	0.16189665
62	0x3d734273	0.059389543
63	0x3e0a8f36	0.13531193

dense/kernel/transpose f4 [64, 9]
0	0x3b16f69d	0.0023035177
1	0x3c343540	0.010999024
2	0xbdd98ce4	-0.10622576
3	0xbd9ba9e8	-0.076007664
4	0x3e2b4dc9	0.16728891
5	0xbd2a356b	-0.04155485
6	0x3d433626	0.04765906
7	0xbc0b2a65	-0.008493994
8	0xbee5c80a	-0.4487918
9	0x3ec3425f	0.38136575
10	0xbe561551	-0.20906569
11	0xbe746f08	-0.2387048
12	0x3d804840	0.062637806
13	0x3e2cd064	0.1687637
14	0x3d569c56	0.052395187
15	0x3e37860b	0.17922227
16	0xbdc601db	-0.09668323
17	0x3e8b0833	0.27154693
18	0x3e38af60	0.1803565
19	0x3e3fd340	0.18732929
20	0xbd8ce09d	-0.06878779
21	0xbe959d07	-0.29221365
22	0x3e1d5c74	0.153673
23	0xbdccb51c	-0.09995481
24	0x3e8c7207	0.27430746
25	0xbe8826b6	-0.26592034
26	0xbec707c4	-0.38873112
27	0x3e2c99e9	0.16855587
28	0xbe63c23d	-0.22242065
29	0xbeaba152	-0.33521515
30	0x3d9bfb47	0.07616287
31	0x3e699c3c	0.22813505
32	0x3e869d49	0.26291874
33	0xbe4e3a3d	-0.20139404
34	0x3e923e93	0.28563365
35	0x3ccc47e9	0.024936633
36	0x3ea44bf9	0.32089213
37	0x3da3ceda	0.07998438
38	0x3eaeda41	0.3415089
39	0x3e5a963c	0.21346372
40	0x3e0055fa	0.12532797
41	0x3d8bfae1	0.06834961
42	0xbe0e5840	-0.13900852
43	0xbef75c2e	-0.48312515
44	0xbe03b8fe	-0.12863538
45	0xbe216f3b	-0.15765087
46	0xbe781f89	-0.2423078
47	0x3e1c654b	0.15273015
48	0x3dbeff9d	0.09326098
49	0xbe99c593	-0.3003355
50	0x3de1b55e	0.11020921
51	0x3ee2bd67	0.44285128
52	0xbec48e11	-0.38389638
53	0xbec24b21	-0.37947944
54	0xbe69b5ab	-0.22823207
55	0xbe596a96	-0.21232066
56	0x3d10da82	0.035364635
57	0xbd5cb5ed	-0.053884435
58	0xbc9b8897	-0.01898603
59	0x3e4928a0	0.19644403
60	0xbe86cf0d	-0.26329842
61	0x3ccc5b55	0.024945894
62	0xbdcc521a	-0.09976597
63	0x3d83b665	0.06431273
64	0x3cdb9142	0.026802663
65	0xbdf8d980	-0.1215086
66	0x3dead7a1	0.11466909
67	0xbe90b123	-0.28260145
68	0xbe807a48	-0.25093293
69	0x3d8bc926	0.068254754
70	0xbe2bde0f	-0.16783927
71	0xbec88879	-0.3916662
72	0xbe7e9b93	-0.24864034
73	0xbd2c6b34	-0.042094424
74	0xbdc31000	-0.09524536
75	0xbe755bb9	-0.2396077
76	0xbe2a46bc	-0.16628546
77	0xbe64b4ba	-0.22334567
78	0x3dd1f9f4	0.10252753
79	0xbe6e0b1e	-0.23246428
80	0x3e53101e	0.20611617
81	0x3e138792	0.14407185
82	0xbea7b3b5	-0.32754293
83	0xbe10e71d	-0.14150663
84	0xbe1c1e93	-0.15246038
85	0x3c71b395	0.014752288
86	0x3eba1c2e	0.36349624
87	0x3e45ceaf	0.19317125
88	0x3e8c99c1	0.27461055
89	0x3d4ab535	0.04948922
90	0x3e689394	0.22712547
91	0xbd425c8c	-0.04745154
92	0xbd8742d7	-0.066045456
93	0xbdbabd9e	-0.09118198
94	0xbd9f099d	-0.077655055
95	0x3eae8fbe	0.34094042
96	0x3e8c5faa	0.27416736
97	0xbe8da3c7	-0.27664015
98	0x3e517e2c	0.20458287
99	0xbe56c882	-0.20974925
100	0x3d5389d9	0.051645134
101	0xbe6df80f	-0.23239158
102	0xbe81da70	-0.25361967
103	0xbe383667	-0.17989503
104	0x3e9b2188	0.3029902
105	0xbe3edef8	-0.18639743
106	0x3d8f16aa	0.06986745
107	0xbd270887	-0.040779617
108	0xbe282266	-0.16419372
109	0x3e0b738a	0.13618293
110	0xbe2deb29	-0.16984238
111	0xbd4eb236	-0.050462924
112	0x3d0c3d57	0.034238186
113	0xbe6b3433	-0.22969131
114	0xbda06283	-0.078312896
115	0xbee9a099	-0.4563034
116	0x3e735ee9	0.23766674
117	0xbe1356c9	-0.14388575
118	0xbe41a161	-0.18909217
119	0xbea1ffa9	-0.31640366
120	0xbdba4ce3	-0.09096696
121	0x3d97de32	0.07415427
122	0x3e78cf5a	0.24297848
123	0xbbf56300	-0.0074886084
124	0x3ea4a213	0.32154903
125	0x3e81d50a	0.25357848
126	0xbe1cacc6	-0.15300283
127	0x3ddbdcf0	0.107355
128	0xbec1dd62	-0.37864214
129	0x3dcb9313	0.099401616
130	0x3dc245a5	0.0948594
131	0xbd7b5dee	-0.061368875
132	0xbe60eebf	-0.21966074
133	0xbe60394e	-0.2189686
134	0xbe7fdaba	-0.24985781
135	0xbe19d774	-0.15023595
136	0xbe2af5f2	-0.16695383
137	0xbc34ae23	-0.011027846
138	0x3e96ac59	0.29428366
139	0xbdf058b3	-0.11735668
140	0x3dfb0de6	0.1225851
141	0x3db83c32	0.08995856
142	0x3e22fb6e	0.15916225
143	0xbea514f8	-0.3224256
144	0xbe3eba98	-0.18625867
145	0xbd72b6e2	-0.059256442
146	0xbe2bcd10	-0.16777444
147	0xbead32ca	-0.3382781
148	0x3cc90ea5	0.024543116
149	0x3da8a887	0.08235269
150	0x3e608c2a	0.21928468
151	0x3e49dd0b	0.19713227
152	0xbe8b5bdb	-0.27218518
153	0x3eca8bbf	0.39559743
154	0xbdd061f8	-0.10174936
155	0x3e9cd1dc	0.3062886
156	0x3e31e04a	0.17370716
157	0xbe08e3f6	-0.1336821
158	0xbd9c039d	-0.07617877
159	0x3e3e6b4c	0.18595618
160	0xbe134fe5	-0.14385946
161	0xbc5c9bdf	-0.013464897
162	0xbda69984	-0.081347495
163	0xbd854086	-0.065064475
164	0xbe418279	-0.18897428
165	0xbd5288f4	-0.05140014
166	0x3e079d16	0.13243517
167	0xbe3f47f0	-0.18679786
168	0x3e9bff57	0.30468246
169	0xbe70b573	-0.23506717
170	0x3d21dff0	0.039520204
171	0xbe7aaf66	-0.24480972
172	0xbda543a5	-0.08069543
173	0x3cddbc39	0.02706729
174	0xbd8beeaa	-0.06832631
175	0x3e62259a	0.22084656
176	0x3e6c0476	0.23048577
177	0xbe5cd83d	-0.21566863
178	0x3e42115e	0.18951938
179	0x3e243deb	0.16039245
180	0x3cec3f4c	0.028838776
181	0xbe7afd5b	-0.2451071
182	0x3d8be227	0.068302445
183	0xbce4cab3	-0.027928686
184	0xbd8d3164	-0.06894186
185	0xbecb2c51	-0.39682248
186	0x3d9c3c9a	0.07628746
187	0xbe921001	-0.28527835
188	0xbec57e52	-0.38572937
189	0x3e183600	0.1486435
190	0x3e56bbb2	0.20970038
191	0xbde027e9	-0.10945112
192	0x3e014c09	0.12626661
193	0xbeb5a4b4	-0.3547722
194	0xbebbbf89	-0.36669567
195	0x3e28dac8	0.16489708
196	0x3e06f909	0.13180937
197	0xbe8af290	-0.27138186
198	0x3ea076c7	0.3134062
199	0xbd11471e	-0.035468213
200	0x3d4bb821	0.049736146
201	0x3e970b09	0.29500607
202	0x3e61fd4c	0.22069281
203	0x3eab60ab	0.3347219
204	0xbe93f127	-0.28894922
205	0x3e00eaba	0.12589541
206	0xbe5f16ba	-0.21786013
207	0x3e09fcc4	0.13475329
208	0xbd930dac	-0.07180342
209	0xbd072924	-0.03299822
210	0x3c895374	0.016763426
211	0x3ddc374d	0.10752735
212	0x3ebb75c7	0.36613294
213	0xbe590243	-0.21192269
214	0xbdef8b5f	-0.11696505
215	0x3e2c0efd	0.16802593
216	0x3e1ec899	0.1550621
217	0xbd957dfb	-0.072994195
218	0xbe5d2710	-0.21596932
219	0x3e6ad71d	0.22933622
220	0xbe97d1c6	-0.29652232
221	0xbe2a1f06	-0.16613397
222	0xbd95b3d6	-0.073096916
223	0xbe90db7a	-0.28292447
224	0x3e80a028	0.2512219
225	0xbe851f9c	-0.2600068
226	0x3ccb1cd0	0.024794012
227	0xbd7339c7	-0.059381273
228	0xbe937f05	-0.28807846
229	0xbe5ed510	-0.21760964
230	0x3d15c037	0.036560263
231	0xbd8c2758	-0.06843442
232	0xbe837836	-0.2567765
233	0x3d4252ee	0.04744237
234	0xbe2f2316	-0.17103228
235	0xbe34da5c	-0.17661422
236	0xbe538d4f	-0.20659374
237	0xbd3508cd	-0.044197846
238	0x3e64ce79	0.22344388
239	0x3e5521c8	0.20813668
240	0xbe507487	-0.20356952
241	0x3df90a4c	0.12160167
242	0xbe112af2	-0.14176539
243	0x3db9d3f5	0.09073631
244	0xbe608a5d	-0.21927781
245	0xbde8cfd9	-0.11367769
246	0x3e1bd6e7	0.15218697
247	0x3e1f832b	0.1557738
248	0xbe8b0980	-0.27155685
249	0xbe86f80d	-0.26361123
250	0x3ca58e95	0.02020959
251	0xbbc3f508	-0.0059801377
252	0xbc04e353	-0.008110839
253	0xbdb35cba	-0.087579206
254	0xbe2565e4	-0.1615215
255	0xbdda2555	-0.10651652

dense_1/MatMul_bias f4 [64]
0	0x3de0e913	0.109819554
1	0x3e26eef8	0.16302097
2	0xbbb6688b	-0.0055666617
3	0x3b145a3f	0.0022636799
4	0xbcdf5ae3	-0.027265018
5	0xbcdcdc12	-0.026960406
6	0x3e30874a	0.17239109
7	0x3e2f6079	0.17126645
8	0x3b8a6dc5	0.0042245113
9	0x3c9564f2	0.018236611
10	0x3e375fbd	0.17907615
11	0x3e243448	0.16035569
12	0xbccdc7dd	-0.025119716
13	0x3e267fea	0.16259733
14	0x3b641d93	0.0034807667
15	0x3e2d5527	0.16927014
16	0x3e29f118	0.16595876
17	0xbd6c70d4	-0.05772479
18	0x3e34303d	0.17596526
19	0x3e2616f4	0.16219693
20	0xbcfa4d9a	-0.030554581
21	0x3e2782a7	0.16358434
22	0x3e2b5f4c	0.16735572
23	0xbd2b53c5	-0.041827936
24	0x3e11ba29	0.1423117
25	0x3e29c0cf	0.16577457
26	0x3e280ef0	0.16411948
27	0xbc0b9a00	-0.008520603
28	0xbcd257be	-0.025676604
29	0x3e25b961	0.16183998
30	0x3e267c74	0.16258413
31	0xbd5a6201	-0.05331612
32	0xbce25584	-0.027628668
33	0xbcea1be0	-0.028577745
34	0x3e2e3e6e	0.17016003
35	0xbd1a350e	-0.037648253
36	0xbd57a766	-0.052649878
37	0xbd0d3159	-0.03447089
38	0x3e2cf44c	0.16890067
39	0xbcc8fd60	-0.024534881
40	0x3e35fce9	0.17772259
41	0xbcbd7e03	-0.023131376
42	0x3e2f5c43	0.17125039
43	0xbd2ad516	-0.04170712
44	0x3b17e699	0.0023178218
45	0x3e274e9a	0.16338578
46	0xbcb56cc6	-0.022146594
47	0x3e2b1bc1	0.16709806
48	0xbcb649c2	-0.022251967
49	0x3e32bb30	0.17454219
50	0x3e319fec	0.17346162
51	0x3e281f32	0.1641815
52	0x3c4edfa2	0.01262656
53	0xbd3570a0	-0.04429686
54	0x3cde8c47	0.027166499
55	0x3b318178	0.0027085226
56	0x3e3425fe	0.17592618
57	0xbccefe67	-0.025267793
58	0x3e2f7d9b	0.17137758
59	0xbd568384	-0.052371517
60	0x3e2f8ec1	0.171443
61	0xbce4a355	-0.027909914
62	0xbd531fd2	-0.051544018
63	0x3e320ec6	0.17388448

dense_1/kernel/transpose f4 [64, 64]
0	0x3dc210cf	0.09475862
1	0x3d2d2f52	0.042281456
2	0x3e46a894	0.19400245
3	0xbdc6f4b9	-0.09714646
4	0x3e04f7ba	0.12985125
5	0x3e7d16b0	0.24715686
6	0x3e574001	0.2102051
7	0xbc8441c5	-0.016144643
8	0x3e3b4767	0.18288957
9	0x3da63c80	0.08117008
10	0x3d9ea8f8	0.07747072
11	0x3e68c687	0.22731982
12	0x3e6d2a9c	0.23160785
13	0xbe225c95	-0.1585563
14	0xbddcad2b	-0.10775217
15	0x3c912f68	0.0177228
16	0x3ddc1ed7	0.1074807
17	0xbc9b347e	-0.018945929
18	0x3c6ef63d	0.014585075
19	0x3e41c6dd	0.18923517
20	0x3e52459f	0.20534371
21	0x3d7ba375	0.06143518
22	0x3d87e176	0.066348
23	0x3e36b0e3	0.17840914
24	0x3e1272d1	0.14301611
25	0x3e856e17	0.26060554
26	0x3cca829a	0.024720479
27	0x3e09257e	0.13393208
28	0xbddd07ce	-0.10792504
29	0xbc126d04	-0.008937124
30	0x3c85fcea	0.01635595
31	0x3e38c911	0.18045451
32	0xbdcc5925	-0.099779405
33	0x3da09552	0.078409806
34	0xbd5a7c7a	-0.053341366
35	0x3e86a9fd	0.26301566
36	0x3cb53865	0.022121618
37	0x3dc29eb8	0.095029294
38	0x3e95d6df	0.29265496
39	0xbd630872	-0.055427976
40	0x3e1a4030	0.15063548
41	0xbd1ebd5b	-0.038754802
42	0x3d520314	0.051272467
43	0x3e55936e	0.20857021
44	0x3e90ee93	0.28307018
45	0xbd1a8ee7	-0.03773394
46	0x3d178cbb	0.036999445
47	0x3e2dedd3	0.16985254
48	0x3e65f2de	0.22455928
49	0xbc657245	-0.014004295
50	0x3c6d353f	0.014478027
51	0xbe23603c	-0.15954679
52	0xbcd32f0b	-0.025779268
53	0xbe57b43e	-0.2106485
54	0xbd742c47	-0.05961254
55	0x3de76ed2	0.11300434
56	0x3e388cf3	0.18022518
57	0x3e20ad4d	0.15691109
58	0x3d719f7a	0.05898998
59	0x3e6e2e74	0.23259908
60	0xbd2b8a6d	-0.04188006
61	0x3cd1f708	0.025630489
62	0xbe292c4e	-0.16520807
63	0x3d6e76b4	0.058218673
64	0x3e2f8710	0.17141366
65	0x3e2f0cf3	0.17094783
66	0x3e2b65fb	0.16738121
67	0x3e30411e	0.1721234
68	0xbe142d3c	-0.1447038
69	0x3d1934de	0.037403934
70	0x3e854bc9	0.26034382
71	0x3e9cf0b8	0.30652404
72	0x3d08ee8e	0.03343063
73	0x3e25c849	0.16189684
74	0x3e876374	0.26443064
75	0x3c1dfb49	0.009642431
76	0x3cfea798	0.031085774
77	0x3ce1b708	0.027553096
78	0x3e4cbe11	0.1999438
79	0x3eaea542	0.34110457
80	0x3e154ba2	0.14579633
81	0x3e56d73e	0.20980546
82	0x3e5136f1	0.20431115
83	0xbdc3f744	-0.095686466
84	0x3e08ed33	0.13371734
85	0xbe0cbda5	-0.13744219
86	0x3e65c704	0.224392
87	0x3d37d410	0.044879973
88	0xbe00bbc3	-0.12571625
89	0x3d52932d	0.05140989
90	0x3e5f8c79	0.2183093
91	0x3e2e1afc	0.17002481
92	0x3e3da19f	0.18518685
93	0x3e244244	0.16040903
94	0xbdf1112d	-0.11770854
95	0x3de76fb1	0.113006
96	0x3e63b321	0.22236301
97	0x3db48239	0.088139005
98	0x3e410f2c	0.18853444
99	0x3e8a8798	0.27056575
100	0x3c863e8a	0.016387243
101	0x3e016d97	0.12639461
102	0x3e9838e8	0.29730916
103	0x3e36c4eb	0.17848556
104	0x3d8a428a	0.067509726
105	0xbbfa381f	-0.0076360847
106	0x3eb19aee	0.34688514
107	0x3d952909	0.072832175
108	0x3e012ad4	0.12613994
109	0x3e53d1fd	0.20685573
110	0x3e4e1ce5	0.2012821
111	0x3e4bc707	0.19900142
112	0x3e9160bd	0.28394118
113	0xbd55abc0	-0.052165747
114	0xbcc8165f	-0.02442473
115	0xbda5b006	-0.080902144
116	0x3e1b87fa	0.1518859
117	0xbe12343b	-0.14277737
118	0x3e40b1dd	0.1881785
119	0x3d9f7893	0.077866696
120	0xbc668342	-0.01406938
121	0x3ea30b7e	0.31844705
122	0x3e04b752	0.12960556
123	0xbc859ec8	-0.016311064
124	0xbdaa6df4	-0.08321753
125	0x3e2c0dee	0.16802189
126	0x3daa1766	0.08305244
127	0x3df86717	0.12129038
128	0xbd3dadc4	-0.046308294
129	0x3de6da82	0.11272146
130	0x3dfeb313	0.124364994
131	0x3e50ade7	0.20378838
132	0x3d9e915e	0.0774257
133	0xbdff9fa8	-0.12481624
134	0x3c3136fc	0.010816332
135	0xbc769a00	-0.015051365
136	0x3e3b6819	0.18301429
137	0xbd9e9b83	-0.07744505
138	0xbda6810e	-0.08130084
139	0xbdf56c3d	-0.119835354
140	0xbdec672e	-0.115431175
141	0xbdeb8c30	-0.11501348
142	0xbdb63ff4	-0.08898917
143	0x3d5bf669	0.053701792
144	0x3cbfdd11	0.023420842
145	0xbd4bc4c4	-0.049748197
146	0x3d14b791	0.036307875
147	0xbe0146c8	-0.12624657
148	0xbdeee64b	-0.11665019
149	0x3db94156	0.09045665
150	0xbe57c4c4	-0.21071154
151	0xbcf7dcd0	-0.030256659
152	0xbb8e8e40	-0.0043504536
153	0xbdd06167	-0.10174828
154	0x3e436e39	0.19085015
155	0x3e504cc9	0.20341791
156	0x3e26d14c	0.16290778
157	0x3d3386fc	0.043829903
158	0xbc5e43a0	-0.013565928
159	0xbdfaf28f	-0.12253296
160	0xbdf794b1	-0.120889075
161	0xbe291705	-0.16512688
162	0xbe0c573e	-0.13705155
163	0xbdb665ee	-0.0890616
164	0xbe490273	-0.1962984
165	0xbdc901d8	-0.09814805
166	0x3d624015	0.055236895
167	0x3e004371	0.12525727
168	0x3e372449	0.17884935
169	0x3aeebb80	0.0018213838
170	0x3d4ebb02	0.050471313
171	0xbe2a2570	-0.16615844
172	0x3e2dd270	0.16974807
173	0x3c6dd26b	0.0145155
174	0xbc0ff271	-0.00878583
175	0xbe0ce163	-0.13757853
176	0xbdfdfcb4	-0.12401715
177	0x3e577d62	0.21043923
178	0xbd8fe61b	-0.07026311
179	0xbd0fae6c	-0.03507845
180	0xbe4cea1c	-0.2001118
181	0xbd183d6f	-0.037167963
182	0x3e1e066e	0.1543214
183	0xbdcd70a4	-0.1003125
184	0xbdf553cb	-0.11978873
185	0xbcf18eb4	-0.029486991
186	0xbd894186	-0.06701951
187	0xbd20a6c8	-0.039221555
188	0xbe54be02	-0.20775607
189	0xbe3e35a8	-0.18575156
190	0xbe026f7e	-0.12737843
191	0xbe2498dc	-0.16073936
192	0xbd2f6b76	-0.042827092
193	0xbe8f10b8	-0.27942443
194	0x3e371ae2	0.17881349
195	0xbe19e632	-0.15029219
196	0xbe73c91f	-0.2380719
197	0xbd7f25ca	-0.062291898
198	0xbcd5cbf3	-0.026098227
199	0xbe211501	-0.15730669
200	0x3d92c721	0.07166887
201	0xbdbc2781	-0.09187222
202	0x3c868a4a	0.016423363
203	0x3e3c7b76	0.18406472
204	0xbe3bb6d2	-0.18331459
205	0xbe17faf0	-0.14841819
206	0xbe7f6309	-0.24940123
207	0x3e038560	0.12843847
208	0x3ce7552f	0.02823886
209	0xbd314084	-0.043274418
210	0xbe4c8554	-0.19972736
211	0xbda0ac02	-0.07845308
212	0xbe41a171	-0.18909241
213	0x3c10dc91	0.00884165
214	0x3e130f43	0.1436129
215	0xbc6ab10b	-0.014324437
216	0xbe0b0df4	-0.13579541
217	0xbe1ea64b	-0.15493123
218	0x3d14620e	0.036226325
219	0xbd90ce18	-0.07070559
220	0xbd34536d	-0.044024874
221	0xbb30f9fd	-0.0027004473
222	0x3cf5f3ae	0.030023422
223	0xbca69f83	-0.020339733
224	0x3d065442	0.0327952
225	0xbe34a92e	-0.17642662
226	0x3e0c8810	0.13723779
227	0x3d693bfb	0.056941967
228	0xbb2e3a24	-0.0026584947
229	0x3d6bdfdb	0.057586532
230	0x3cc17608	0.023615852
231	0x3cc4d52a	0.024027426
232	0xbdd686a8	-0.104749024
233	0x3d55cd26	0.052197598
234	0xbe07cb77	-0.1326121
235	0x3d8a8da1	0.06765295
236	0x3d82e5e7	0.06391507
237	0x3d076902	0.033059128
238	0xbd46acb4	-0.048504546
239	0xbd2164cc	-0.039402768
240	0x3e32c7d3	0.1745904
241	0xbdf40838	-0.1191563
242	0x3e088b9c	0.13334507
243	0x3e810c09	0.25204495
244	0x3e3540b0	0.17700458
245	0xbe047010	-0.12933373
246	0xbdba88d9	-0.09108133
247	0x3d702cae	0.05863636
248	0x3da64bb1	0.08119906
249	0xbd0553f6	-0.032550775
250	0xbd895127	-0.06704932
251	0x3e324529	0.17409195
252	0xbca092c7	-0.019601239
253	0x3d8b0f1f	0.067899935
254	0xbcebe31b	-0.028794816
255	0xbdf63f58	-0.120238006

dense_2/kernel/transpose f4 [1, 64]
0	0x3dc6e0ed	0.0971087
1	0x3ed491d0	0.41517496
2	0xbddbe62a	-0.1073726
3	0xbebd4d2e	-0.36972946
4	0xbde61167	-0.11233788
5	0xbde52ace	-0.11189805
6	0x3e62338d	0.22089978
7	0x3e65aae5	0.22428472
8	0xbe60a8bf	-0.21939372
9	0xbecf46ef	-0.40483806
10	0x3e3b096c	0.18265313
11	0x3edda35f	0.43288705
12	0xbdb31c50	-0.087456346
13	0x3ec9f876	0.39447373
14	0xbe86018d	-0.26173058
15	0x3edac2bc	0.42726696
16	0x3e8c5de7	0.27415392
17	0xbe4c5ccb	-0.19957273
18	0x3e232f27	0.15935956
19	0x3ea96561	0.33085158
20	0xbe884ddd	-0.26621905
21	0x3eb75b4e	0.35811847
22	0x3e3df2b5	0.18549617
23	0xbe82e607	-0.25566122
24	0x3dd3f606	0.103496596
25	0x3eae9061	0.34094527
26	0x3e930662	0.28715807
27	0xbe41c549	-0.18922915
28	0xbd6e6c63	-0.058208834
29	0x3eb569de	0.35432333
30	0x3eb96be9	0.3621514
31	0xbd817e96	-0.063229725
32	0xbe05d345	-0.13068874
33	0xbec7d926	-0.3903286
34	0x3e68a8f7	0.22720705
35	0xbe55b608	-0.2087022
36	0xbe6d4d06	-0.23173913
37	0xbc0ba8f6	-0.00852417
38	0x3ed6cda4	0.41953766
39	0xbe774dbb	-0.24150746
40	0x3e549e8d	0.20763607
41	0xbe86d400	-0.26333618
42	0x3e98a76e	0.2981524
43	0xbe5df4a8	-0.2167536
44	0xbe5d4969	-0.21610035
45	0x3e90cd8a	0.28281814
46	0xbd9e4103	-0.07727244
47	0x3e469033	0.19390945
48	0xbecc9ca8	-0.3996327
49	0x3e4982ec	0.19678849
50	0x3e5f87e3	0.2182918
51	0x3e8bab69	0.27279213
52	0xbe8a1324	-0.26967728
53	0xbd68cb09	-0.056834254
54	0xbed2cf10	-0.411736
55	0xbe47172a	-0.1944243
56	0x3e418c18	0.18901098
57	0xbe311454	-0.17292911
58	0x3e9c01cf	0.3047013
59	0xbe327a97	-0.17429577
60	0x3e85805a	0.26074487
61	0xbd9b3bab	-0.0757974
62	0xbde92707	-0.11384397
63	0x3e302adf	0.17203854
